results/full_experiments/full_experiment_10000_enhanced/mlp_analysis/mlp_model.pt (torch, 5681 bytes, 3 tensors)

fc1.weight f4 [64, 10]
00000000: c45d 89be a5c8 c13e cc5c c9be 06e7 88be
00000010: 0396 493e 4348 33bf 64ac b13e 6bc6 033d
00000020: 0910 47bc 132b b6be 2d88 c63d e7d2 aa3e
00000030: 8aeb 993e 68e2 813e c9ab 28bd 9024 233d
00000040: f91a ebbd 4ea7 803e 825a 58be 8016 d6bc
00000050: 5b33 4bbd e507 27be a4f7 bf3b 5a32 afbc
00000060: 927a 36be fd7d 1c3e b5fc 113e fae5 cb3e
00000070: ada0 9abe e6df af3d d826 c93b 215e 36bd
00000080: 257f 473e 9c15 c3be 1d20 53bc bdc4 38be
00000090: 1491 8e3e f088 583c a5e7 183b 12be 53bd
000000a0: 6d32 4cbe 7c41 8fbe cd4f 0f3e 7f19 0b3e
000000b0: 28cc 4ebe e7f9 4b3e 0ffb 803e b3d7 30be
000000c0: 8815 80be a631 30be b859 bdbe 0f09 7d3e
000000d0: 4d2d e7bd 74fe 3b3d 6fb7 33bf 7b2c a9bf
000000e0: 055a 4ebe 9c58 e63e 0bde 63bd aed2 4bbe
000000f0: 55d2 643d abbf bcbe ebea a53e 4463 2d3e
00000100: cdb1 523e 731c 8bbe 2096 c63d 10bf 1abe
00000110: 31f9 f93d a5de f33d 996c 903e 260d bf3d
00000120: 333d 9a3e c785 49be d1d5 a23e d097 8f3d
00000130: 300d 10bd f60f 483e d8ee 23bd e36a 69be
00000140: d955 d8bb 385f eabc ee27 1a3e c380 20be
00000150: 7b3a 8c3e 1fcd a83e d183 04be 5c55 27be
00000160: 817c 4bbe 3a00 793e efdd 893e f075 863e
00000170: 801b 22bd c21f b6bd 4790 d23d 94a6 723e
00000180: 532c 8ebb 7d94 fdbd 7fac 973e 2a8f 943d
00000190: 6bf8 5e3e b41b 5c3c d3a8 9abd 9b8d 7d3e
000001a0: d5be bc3e 3537 973e 4526 353e 9341 593e
000001b0: 7949 9c3b 521d 923e 1271 e3be 6a73 103e
000001c0: bfb6 b0bc 725a 683e c5e8 cdbe fe2b fd3c
000001d0: 4bb0 9f3e 36ce b4be 49fd adbd 823c 933c
000001e0: 9458 0bbf 80d6 15be ad71 ee3d 085a df3d
000001f0: 16ba 5b3d c8a0 cabd bb7f 9abe bad6 be3e
00000200: aa9f ed3d f225 c1ba 3ac7 96bc 7594 693e
00000210: 3474 1b3e 1ec8 a43a f779 3ebe bd22 8cbd
00000220: 0766 fdbe 4422 99bd 785a e2be dcc5 663e
00000230: 2b50 613e a010 453e 66ed af3e fa62 48bd
00000240: 518b 1c3e 05aa 253e 4f8a 3e3e f1e4 633d
00000250: 16d7 04be 7293 9b3e 0b3a 963e a30e 923d
00000260: 3ab1 913c 74d2 9b3e 1ccb 36be ce9e 07bd
00000270: 6e5a 7c3d 2c17 01be a583 8c3e e4c7 e93d
00000280: f4ca cb3d fc6d 9abe 6f55 e9bd 9ec9 c63e
00000290: 8cad bebd 05db 873c 3c0f 95be 5db1 8e3e
000002a0: ae5c bc3e cb82 6bbe 9a7e 19bb 6377 06be
000002b0: 07f2 b33e 7cc7 6fbd 19c8 8cbe 2994 953e
000002c0: d234 4ebe 6425 fa3e 050d 80be 5f0e 7abe
000002d0: b630 1a3e 5c8d 5fbe 2e21 203f 3d09 5abd
000002e0: 24b9 c7be 2b32 a1be 91ee 2fbf 5eb8 a8bd
000002f0: feb5 573e bbe3 2dbe c9f5 87be 5e1e d6bc
00000300: d7b0 293d f03c 00be 9613 b1bd b435 58bd
00000310: b22a 42be 9256 efbd ceec c63d cc8a 8dbe
00000320: c929 3ebe 0037 953e cc44 cd3d da3b e63d
00000330: 6554 a0be 5a8e b7be 0be4 f3be 922d 92be
00000340: 6e58 96be 7d5e c9be 3654 07be 5900 4a3e
00000350: eab3 09be 0c49 89be 7ebb e53d d5a8 203e
00000360: a60f 453e 6d0e 63bc b67d 88be 1647 093e
00000370: 1956 b4be 6b9d f73d a5f6 3dbf 3128 c0be
00000380: ac35 5bbe d372 373e b272 e1bc 0d78 9abe
00000390: 79de 353e 56c8 43bd 9086 19be 35d0 5ebd
000003a0: e519 213d e5f7 51bc 8cb5 9c3e 4007 623e
000003b0: 2188 75be 4da5 ad3e 7810 a73e b1c0 00be
000003c0: ede4 1cbd 579f 48be 29df ebbc bed3 ab3c
000003d0: 285c 53bd a275 a1bd 74e4 8c3e 8343 883e
000003e0: d076 3f3e 7a9a 00be 0933 1f3d 6b24 453e
000003f0: 6d0d 25be 7fce 09bd 98d0 143e 0bb4 eabe
-0.2682935 0.37848392 -0.3932861 -0.26738757 0.19686131 -0.7003214 0.34701836 0.032171648
-0.012149819 -0.35579738 0.09693942 0.3336403 0.30062515 0.25368047 -0.041179452 0.03982979
-0.11479754 0.25127643 -0.21128276 -0.026133776 -0.049609523 -0.16311605 0.0058583785 -0.021386314
-0.17820194 0.15282436 0.14256556 0.39823896 -0.3020071 0.08587627 0.0061386637 -0.044523362
0.19482096 -0.38102424 -0.012886074 -0.180438 0.2784506 0.013216242 0.002333143 -0.051694937
-0.19941111 -0.27979648 0.13995285 0.13583945 -0.20195067 0.19919549 0.25191543 -0.17269783
-0.25016427 -0.1720644 -0.36982512 0.24710487 -0.11287937 0.045896962 -0.7020177 -1.3216699
-0.20151527 0.4498948 -0.05563168 -0.19904587 0.05586465 -0.3686498 0.3240579 0.16932398
0.20575638 -0.27170143 0.09696603 -0.15111947 0.122057326 0.119077004 0.28207853 0.0932868
0.30124816 -0.19679938 0.31803754 0.07011378 -0.035168827 0.19537339 -0.0400227 -0.2279468
-0.0066020307 -0.028609857 0.15054294 -0.15674119 0.27388367 0.32968995 -0.12940909 -0.16341156
-0.19871713 0.24316493 0.26927134 0.26261854 -0.039577007 -0.08892776 0.10281425 0.23696357
-0.00433878 -0.123818375 0.29623792 0.07253869 0.21774451 0.013434339 -0.07551732 0.2476105
0.36864343 0.29534307 0.1769038 0.21216421 0.004769501 0.28537995 -0.44422203 0.14106527
-0.021571515 0.22690752 -0.40216652 0.030904766 0.31189188 -0.35313576 -0.08495576 0.017973188
-0.54432034 -0.14632607 0.11642776 0.10905844 0.053644262 -0.09893948 -0.30175576 0.37273198
0.11602719 -0.001473604 -0.018405546 0.22810538 0.15181047 0.0012571847 -0.18601213 -0.06842563
-0.49491903 -0.07477239 -0.44209647 0.22536415 0.22003238 0.19244623 0.34360808 -0.048922516
0.1528752 0.16178139 0.18607448 0.055638257 -0.12972674 0.3038593 0.29341158 0.07131698
0.017784704 0.30434 -0.17850918 -0.033110432 0.061609678 -0.12606496 0.27444187 0.11415079
0.099508196 -0.30162036 -0.11393248 0.38825697 -0.09310445 0.016583929 -0.29113185 0.27869692
0.3678946 -0.22999112 -0.0023421408 -0.1313148 0.3514559 -0.058539852 -0.27496412 0.292146
-0.20137337 0.48856652 -0.25009933 -0.24419545 0.15057644 -0.21831268 0.6255063 -0.053231467
-0.3900844 -0.31483588 -0.687234 -0.0823829 0.21065518 -0.16981404 -0.26554707 -0.026137527
0.041428413 -0.12523246 -0.08646314 -0.05278559 -0.189616 -0.11686434 0.09713136 -0.27644956
-0.18570627 0.29143524 0.100228876 0.112418845 -0.31314388 -0.35850793 -0.4763492 -0.28550392
-0.29364341 -0.393299 -0.13215718 0.19726695 -0.13447538 -0.26813543 0.11217402 0.15689404
0.1924425 -0.01385842 -0.2665841 0.13406023 -0.35221937 0.12090572 -0.74204475 -0.37530664
-0.21407193 0.17914896 -0.027520511 -0.30169716 0.17760648 -0.047798477 -0.14992738 -0.05439778
0.039331336 -0.01281545 0.3060726 0.22073078 -0.2397771 0.33915177 0.32629752 -0.12573506
-0.03830426 -0.19592033 -0.028792934 0.02097499 -0.05160156 -0.07883765 0.27518046 0.26614007
0.18697667 -0.12558928 0.03886703 0.19252174 -0.16118403 -0.033644196 0.14532697 -0.45840487

fc1.bias f4 [64]
00000000: bbae 793e c8cc 7a3e 554d 613e 7942 5e3e
00000010: 7b7f b4be 307b 183e 73ce 8cbe 4f8f 693d
00000020: 9a53 1dbf 9bfe 203e af07 3d3e e6ed aabe
00000030: 981f af3e 5112 4d3f 37c7 6a3e 3732 c4bc
00000040: aa26 a1be 6f9b 90bd 5706 edbd bc05 48bd
00000050: 3780 bf3e cebe 083e f6c0 203f e082 9d3e
00000060: 6f19 f63c 33c5 0f3f ab10 d73d 37b3 25be
00000070: 73d5 df3e 00e2 50bb 9cc0 f9bc 07f4 123d
00000080: 3b96 223e 4915 523d 5857 bcbe 6551 29bd
00000090: 35d2 d73d 5e44 ce3e b372 393e 2c3c a6bd
000000a0: 3b8c f93d 6a90 d23e b28e 8ebd fda7 163e
000000b0: 653e f53e 0b28 2f3f f8bd 83bd 82a5 053e
000000c0: 26a2 02bf 7284 ce3e 9aac c0be 7bd6 eabd
000000d0: 1686 a93d e985 0f3d 02ab 32bd 5426 28be
000000e0: 0bb0 e83d e0f4 19bf da0f 603e 9c7f 20be
000000f0: 2f7a ef3d fdae 783e 0328 573d 1703 603e
0.2438306 0.2449218 0.22002156 0.21705045 -0.3525351 0.14890742 -0.27501258 0.057021435
-0.6145569 0.15722124 0.18459962 -0.33384627 0.34203792 0.80106074 0.22927557 -0.023949726
-0.3147481 -0.070608966 -0.11573475 -0.048833594 0.37402508 0.13354036 0.62794435 0.30763912
0.030041425 0.5616028 0.10501226 -0.16181646 0.43717536 -0.0031872988 -0.030487351 0.035877254
0.15877621 0.05128983 -0.36785388 -0.04133739 0.10538141 0.40286535 0.1811016 -0.081169456
0.1218495 0.41125804 -0.06960811 0.1471252 0.47899166 0.68420476 -0.06432718 0.13051417
-0.5102867 0.40335423 -0.37631685 -0.1146669 0.08277528 0.035039816 -0.043620117 -0.16420871
0.113617025 -0.60139275 0.21881047 -0.15673679 0.116932265 0.24285503 0.052528393 0.21876179

fc2.weight f4 [1, 64]
00000000: 14ad 0ebf 811d 813d 6a90 763e 08e8 563e
00000010: 7d02 1bbd d0bf 343f 9571 4c3d 934e a73d
00000020: 1b38 e1bd bbc3 0a3e e149 2a3e 0a10 20bf
00000030: ab8a 6ebe 6dcd 70bf 1167 cd3d 0dc8 0c3e
00000040: 9624 173f 4a91 d23e cf56 2b3f 087d ed3d
00000050: 15b4 1b3f 9052 433d 76b9 763f 7df4 9f3d
00000060: 7cf5 c73c 05ab a8be 3c77 363a 052d 88bf
00000070: ffe5 05bf 4080 b43d e104 fe3d f04f 3b3d
00000080: 49fc 803d 7538 783d 79d6 88bf ac7e 39be
00000090: e01f ab3c 9d0a 123e ade2 e53d 5ea9 a93d
000000a0: e25e fbbe da4a 243e 31bb 3cbf b128 3e3d
000000b0: 1aca 64be e2dc afbe f4ca dc3d 300f a93d
000000c0: 7f4d c1be 96ef 113f a143 983f ce0f e63d
000000d0: 1c42 cc3e a8d9 aebd 9a42 9cbf a0bc e6bc
000000e0: 9906 663b eac1 25be 66a3 8c3e 0f27 6e3e
000000f0: f82d 313e 112a 51bf 54b6 d23d 495c a33e
-0.55732846 0.063044555 0.24078527 0.2098695 -0.03784417 0.7060518 0.049913008 0.08169284
-0.109970294 0.13551228 0.16629745 -0.62524474 -0.23295085 -0.94063455 0.10029424 0.13748188
0.590402 0.41126472 0.66929334 0.115961134 0.6082166 0.04768616 0.9637674 0.07810304
0.024409048 -0.32942978 0.00069605163 -1.0638739 -0.5230407 0.08813524 0.12403274 0.04573053
0.062981196 0.060600717 -1.0690452 -0.18114728 0.020889223 0.14261861 0.112248756 0.08284257
-0.49095827 0.16044179 -0.7372313 0.046425525 -0.2234272 -0.34348208 0.10780898 0.0825485
-0.37754437 0.57006204 1.1895639 0.11233483 0.39894187 -0.085376084 -1.2207825 -0.028166115
0.0035099147 -0.16187254 0.27468413 0.23257087 0.17302692 -0.81704813 0.102886826 0.31906345
