baseline_experiment_results/mlp_model.pt (torch, 5617 bytes, 3 tensors)

fc1.weight f4 [64, 10]
0	0xbe1d5ece	-0.15368196
1	0xbd929322	-0.071569696
2	0xbe969ada	-0.29415017
3	0xbe9af06b	-0.3026155
4	0x3cdb24a0	0.026750863
5	0xbcefd7a7	-0.029277636
6	0x3e9088fc	0.2822951
7	0xbe5c3934	-0.21506196
8	0x3e257b6a	0.1616036
9	0xbc99a85d	-0.01875704
10	0x3e617dde	0.22020671
11	0x3e937166	0.28797454
12	0xbe387eb9	-0.18017091
13	0xbe4a59d7	-0.19760834
14	0x3e4c06a6	0.19924411
15	0x3e3f5770	0.18685699
16	0x3e4a5027	0.19757138
17	0xbe188b21	-0.14896823
18	0x3ebf453e	0.37357515
19	0xbe708e17	-0.23491703
20	0xbd2986a4	-0.04138817
21	0x3e14f180	0.1454525
22	0xbde89631	-0.11356772
23	0x3d12b902	0.03582097
24	0x3da2e7f4	0.07954398
25	0xbaa7fd76	-0.0012816626
26	0x3e96e887	0.2947428
27	0xbd668b66	-0.056285284
28	0x3e887466	0.26651305
29	0x3e407638	0.18795097
30	0xbe6febe2	-0.23429826
31	0xbe8f33c7	-0.2796919
32	0xbe8d4466	-0.27591246
33	0x3e94439d	0.28957835
34	0x3e297dc0	0.16551876
35	0xbe9b0065	-0.30273739
36	0xbe85820a	-0.26075774
37	0xbd8d55c6	-0.069011256
38	0x3cc7d1b7	0.024391992
39	0x3e313eaf	0.17309068
40	0x3e2b7c2b	0.16746585
41	0x3e98ca88	0.2984202
42	0x3e5226d5	0.20522626
43	0x3d3a6c19	0.045513246
44	0x3e70acc6	0.23503408
45	0xbe0cce86	-0.13750657
46	0x3e2c10f2	0.16803339
47	0xbe24bb15	-0.16086991
48	0x3e05f8e8	0.13083231
49	0x3cc3f4b4	0.023920394
50	0xbc823d00	-0.015898228
51	0xbe97ba48	-0.2963431
52	0xbe40e8f7	-0.18838869
53	0xbe71d88b	-0.23617761
54	0x3e0cfabb	0.13767521
55	0xbd5697cc	-0.05239086
56	0xbe5b2680	-0.21401405
57	0x3cd37bb2	0.025815818
58	0x3e3ff3bd	0.18745323
59	0x3e26e72c	0.16299123
60	0x3e8c87f0	0.27447462
61	0x3d06b2b0	0.032885253
62	0x3ea22048	0.31665254
63	0x3eab44b8	0.33450866
64	0x3cb37d0e	0.021910217
65	0x3e3756d8	0.17904222
66	0x3d8fd8bc	0.07023761
67	0xbe57ba79	-0.21067227
68	0xbd58895a	-0.052865364
69	0x3e93db78	0.2887838
70	0x3dea086a	0.11427386
71	0xbe8562f5	-0.2605206
72	0x3d090707	0.033453967
73	0x3e011746	0.12606534
74	0x3cf61db2	0.030043457
75	0xbe884e2b	-0.26622137
76	0xbddaf7a9	-0.10691769
77	0x3e9ebf45	0.31005302
78	0xbe2cdf28	-0.16882002
79	0xbe3cccf1	-0.18437554
80	0xbe210bb3	-0.15727119
81	0xbe8fc3e8	-0.28079152
82	0xbe27efca	-0.16400066
83	0x3e2ae2c3	0.16688065
84	0x3e740fce	0.23834154
85	0xbe78de09	-0.2430345
86	0x3df88c34	0.121361166
87	0x3c7c4dc6	0.015399402
88	0xbd9175a0	-0.07102513
89	0x3e7302d3	0.23731546
90	0x3c4f9ce0	0.012671679
91	0xbe447c30	-0.19187999
92	0x3c6cd19b	0.014454271
93	0xbcbea3ab	-0.023271402
94	0xbd99f947	-0.07518249
95	0xbe9fa1a8	-0.3117802
96	0x3e555cfc	0.20836252
97	0xbd9de274	-0.07709208
98	0xbe45799f	-0.19284676
99	0x3e22177a	0.15829268
100	0xbe895a8b	-0.2682689
101	0x3d39738d	0.045276213
102	0xbe7d3641	-0.24727727
103	0x3e66f33a	0.22553721
104	0x3e3ad0e2	0.18243745
105	0xbd2c0a9f	-0.042002317
106	0xbdff2fb7	-0.12460273
107	0xbcd28296	-0.025697034
108	0xbdeff1e1	-0.117160566
109	0x3e102a59	0.14078654
110	0xbd77f2a9	-0.060534153
111	0xbe1cf6e5	-0.15328558
112	0xbdf68c9c	-0.12038538
113	0x3da3215b	0.079653464
114	0x3deea517	0.11652582
115	0xbe5fb1b2	-0.21845129
116	0x3a947d1b	0.0011328788
117	0x3d00f5a0	0.031484246
118	0x3cafeab5	0.021474222
119	0x3df2be28	0.11852676
120	0xbd997b33	-0.074942015
121	0xbde15543	-0.110025905
122	0x3da0a0db	0.07843181
123	0x3de0d697	0.1097843
124	0x3c82c68f	0.01596382
125	0xbdb8334b	-0.08994158
126	0x3e426454	0.18983585
127	0xbe410327	-0.18848859
128	0x3b4a3ccf	0.0030858999
129	0x3b886f5b	0.004163665
130	0x3d516ab0	0.051127136
131	0x3e2dcb78	0.16972148
132	0x3e66a63b	0.2252435
133	0x3d38c52f	0.045109924
134	0xbe505047	-0.20343123
135	0x3e4cc8d9	0.19998492
136	0xbeaab791	-0.33343175
137	0xbe4326be	-0.19057748
138	0x3e06e391	0.13172747
139	0xbe1d6ba8	-0.15373099
140	0xbe00c2b8	-0.1257428
141	0x3cf9d3c2	0.030496482
142	0x3ddd1d30	0.10796583
143	0xbe41cb9f	-0.18925332
144	0xbd2ed693	-0.042685103
145	0x3e22771a	0.15865746
146	0x3c9771f5	0.018486956
147	0x3d11cff5	0.035598714
148	0xbdc77ed1	-0.09740985
149	0xbd3b0dbb	-0.04566739
150	0x3e3e9c5d	0.18614335
151	0x3df076e7	0.11741429
152	0xbe6574e9	-0.22407879
153	0xbe120fa4	-0.14263779
154	0xbe7573eb	-0.2397
155	0x3e74126d	0.23835154
156	0xbe3255db	-0.17415564
157	0x3eb4c10c	0.35303533
158	0x3e27394f	0.16330455
159	0x3e7ae396	0.2450088
160	0xbdcb99d7	-0.09941452
161	0xbd445553	-0.047932934
162	0xbd0ccc2d	-0.034374405
163	0x3e80751c	0.25089347
164	0x3dd8a4e5	0.10578326
165	0x3de2b3c8	0.11069447
166	0x3c760dc4	0.01501793
167	0xbe34f28e	-0.17670652
168	0xbe10d1aa	-0.1414248
169	0xbe666867	-0.22500764
170	0x3e841da1	0.25803855
171	0xbdb3deff	-0.087827675
172	0xbddb42ec	-0.10706124
173	0x3dd8a33a	0.10578008
174	0xbea7b096	-0.32751912
175	0xbdb2ac86	-0.087243125
176	0xbe86c6e0	-0.26323605
177	0x3cff6aa3	0.031178778
178	0x3e0840bd	0.13305946
179	0xbc9168bd	-0.017750138
180	0xbe6f0bc1	-0.23344328
181	0xbcf8620d	-0.030320192
182	0x3dd73130	0.10507429
183	0x3d9b8157	0.07593029
184	0x3e0c1839	0.13681115
185	0xbe7c61fa	-0.2464675
186	0xbdab6cba	-0.08370347
187	0xba91fbcc	-0.0011137663
188	0xbe98b159	-0.29822806
189	0x3dd43c6b	0.10363086
190	0xbeb10bce	-0.3457932
191	0x3e03b90d	0.1286356
192	0x3dfddc32	0.123955145
193	0xbca6f6a5	-0.020381281
194	0xbe73683a	-0.23770228
195	0x3dfa16ba	0.12211366
196	0x3e8b81e1	0.27247527
197	0x3dc1805e	0.09448312
198	0xbc5dd357	-0.013539157
199	0xbdd08dae	-0.10183273
200	0xbe27e5b5	-0.1639622
201	0xbdd847f7	-0.10560601
202	0x3c476c71	0.012171851
203	0xb9bbfa47	-0.0003585389
204	0xbe00a148	-0.12561524
205	0x3db49723	0.088178895
206	0xbd6c3dc5	-0.057676096
207	0x3e76baac	0.24094647
208	0xbe6f4f63	-0.23370127
209	0x3db28551	0.08716834
210	0x3e40399a	0.18771973
211	0x3eb353d8	0.35024905
212	0x3dc7b88d	0.09751997
213	0xbe4809b1	-0.19534947
214	0xbe063ff7	-0.13110338
215	0x3e8b0c60	0.2715788
216	0x3dfb0fe1	0.12258888
217	0xbe46d19b	-0.19415896
218	0xbe44e011	-0.192261
219	0x3e51e249	0.20496477
220	0x3d8b7d32	0.068109885
221	0x3db0c169	0.0863064
222	0x3e55115f	0.20807408
223	0x3e80b8fd	0.25141135
224	0x3e6fb0e4	0.23407322
225	0x3e68398a	0.226782
226	0x3e8dc696	0.27690572
227	0x3eb99296	0.3624465
228	0xbdf0621c	-0.11737463
229	0x3e8f3343	0.27968797
230	0xbe8c2957	-0.2737529
231	0xbe46134a	-0.19343296
232	0x3e9ffc2e	0.31247085
233	0xbc64ebce	-0.013972236
234	0xbe7bc903	-0.24588399
235	0x3cda8b7e	0.026677843
236	0xbd6548ef	-0.055977758
237	0xbe9bc32a	-0.30422336
238	0xbe661592	-0.22469166
239	0x3e97fe33	0.29686126
240	0x3dc340fa	0.09533878
241	0xbe9dc873	-0.30816993
242	0xbe8ce783	-0.2752038
243	0xbe8bf4fa	-0.2733534
244	0x3e81a659	0.25322226
245	0x3e970559	0.29496267
246	0xbe57a468	-0.2105881
247	0x3db1a9b2	0.08674945
248	0xbe78b008	-0.242859
249	0xbda9a3bd	-0.08283184
250	0x3da405e5	0.08008937
251	0x3e689dc6	0.22716436
252	0xbdda192d	-0.10649333
253	0x3e1fced3	0.15606241
254	0xbdfc04d4	-0.123056084
255	0x3d1f2b1b	0.038859468

fc1.bias f4 [64]
0	0xbe872457	-0.26394913
1	0x3da7772d	0.08177028
2	0x3e6978e1	0.22800018
3	0x3e302ed1	0.17205359
4	0xbe1b27f1	-0.15151955
5	0xbe26b2ed	-0.16279192
6	0xbd65e0ff	-0.056122776
7	0xbe9d9930	-0.30780935
8	0x3e645419	0.22297706
9	0x3e766286	0.24061021
10	0x3dd7e1d7	0.105411224
11	0xbe08a77d	-0.13345142
12	0xbe09c87d	-0.13455386
13	0xbe0cd9dc	-0.13754982
14	0x3e53c0e3	0.20679049
15	0x3dd32ea0	0.103116274
16	0x3e4b709b	0.19867174
17	0x3e0bd0f4	0.13653928
18	0x3e576237	0.2103356
19	0xbea6cb8b	-0.32577166
20	0xbe028a12	-0.12747982
21	0x3ea2a4e4	0.31766427
22	0xbc4b6dcf	-0.012416317
23	0xbe40e137	-0.18835913
24	0x3c1b68c6	0.009485429
25	0xbe68fa37	-0.227517
26	0xbe116630	-0.14199138
27	0x3ec1bc7c	0.37839115
28	0x3b759058	0.0037470069
29	0x3e344a50	0.17606473
30	0x3e9e8dbf	0.3096752
31	0x3c930c30	0.017950147
32	0x3e8b5e97	0.27220604
33	0x3e0ee12d	0.13953085
34	0x3dd5b5e1	0.10435081
35	0xbe95e7dd	-0.2927846
36	0xbd905822	-0.0704806
37	0xbe34c426	-0.1765295
38	0xbe51c856	-0.20486578
39	0x3db5004d	0.08837948
40	0x3d097ae5	0.033564467
41	0x3e6b0b2d	0.22953482
42	0x3e8cd4b4	0.2750603
43	0x3c23b94d	0.00999291
44	0x3d3b675c	0.045752868
45	0x3e2fd155	0.17169698
46	0xbe675797	-0.22592007
47	0xbe1350a9	-0.14386238
48	0x3be0baaf	0.006858192
49	0x3d0a8a54	0.033823326
50	0xbe965ffb	-0.29370102
51	0xbe5cd539	-0.21565713
52	0x3e0819b3	0.13291053
53	0xbe56be05	-0.20970924
54	0xbdd15679	-0.102215715
55	0x3e7ded9c	0.24797672
56	0xbea99f8f	-0.33129546
57	0xbdf96b1c	-0.121786326
58	0xbe7bf329	-0.24604477
59	0x3d31bac6	0.04339101
60	0x3e2ba3f2	0.16761759
61	0xbe61fbc5	-0.22068699
62	0xbdce1ad6	-0.10063712
63	0xbd1c7629	-0.038198624

fc2.weight f4 [1, 64]
0	0x3c24ae90	0.010051385
1	0x3d934fd8	0.07192963
2	0x3d22d380	0.039752483
3	0xbdde3884	-0.10850623
4	0x3e2b4824	0.16726738
5	0xbc87f1a8	-0.016594723
6	0x3da19130	0.078890204
7	0xbc92e730	-0.017932504
8	0xbd4f9ca7	-0.050686505
9	0x3d500f4c	0.05079584
10	0xbd473bcc	-0.04864101
11	0x3d2ded84	0.04246284
12	0x3d6d3ef0	0.05792135
13	0xbd47b045	-0.048752088
14	0xbd262ae2	-0.04056824
15	0x3e474551	0.19460036
16	0xbd0616b0	-0.03273648
17	0xbd6f7437	-0.05846044
18	0x3ddbe1f2	0.10736455
19	0xbd1fc652	-0.039007492
20	0xbd0c918c	-0.03431849
21	0x3e2ffec7	0.17187034
22	0x3d94b82b	0.0726169
23	0x3dea680e	0.11445628
24	0xbce0b828	-0.027431563
25	0xbd0c49a1	-0.034249905
26	0x3e410cb3	0.188525
27	0x3db9acab	0.09066137
28	0x3db60ad0	0.08888781
29	0x3d88e767	0.066847615
30	0x3dba5456	0.09098117
31	0xbc039266	-0.00803051
32	0x3e5789fc	0.2104873
33	0x3e3af2e7	0.18256722
34	0xbc56c2fc	-0.013108011
35	0xbc95ae68	-0.01827164
36	0x3e08997a	0.13339797
37	0xbdf0d140	-0.11758661
38	0xbd124a0a	-0.03571514
39	0xbd8139b4	-0.06309834
40	0x3de48234	0.11157647
41	0xbcb18104	-0.021667965
42	0x3da8220c	0.08209619
43	0xbdce375e	-0.10069154
44	0x3e2e4e5e	0.17022082
45	0x3d81b612	0.06333555
46	0xbcc820b8	-0.024429664
47	0xbdaada66	-0.083424374
48	0xbd8cfab0	-0.06883752
49	0x3df6ba1c	0.12047216
50	0x3dee5914	0.11638084
51	0xbdc9500e	-0.09829722
52	0xbdc45648	-0.09586769
53	0x3ba8211d	0.0051309005
54	0x3a3235e7	0.0006798193
55	0x3c1a3bd8	0.009413682
56	0xbda9532e	-0.082678184
57	0xbc874e68	-0.01651688
58	0xbd2015d4	-0.039083317
59	0xbdbcc578	-0.09217352
60	0xbd4e1d14	-0.0503207
61	0xbda5cda0	-0.080958605
62	0xbd9f8cfa	-0.07790561
63	0x3c110090	0.008850232
