results/full_experiments/full_experiment_10000_enhanced/baseline_model.pt (torch, 8803 bytes, 3 tensors)

fc1.weight f4 [128, 10]
000000 13 b4 70 be 47 8e 6f bc ae 85 9a be 42 d3 96 3e
       -0.23506193 -0.014621324 -0.30180115 0.29458052
000010 e1 54 f4 bb 92 ad 04 3e b1 59 9d 3e fa 5a 39 3e
       -0.0074564074 0.12956837 0.30732492 0.18101111
000020 1a d7 1b bd d0 47 4e 3e fc 5b 23 3e 06 cf 43 3e
       -0.038046934 0.20144582 0.15953058 0.19121942
000030 05 ea 55 be 96 61 27 be 1a 9e a7 bd 0e cc a4 be
       -0.20890053 -0.1634582 -0.08184452 -0.3218693
000040 39 71 8c 3c 2e 53 19 bd e1 62 50 bd 20 95 05 bc
       0.017143833 -0.037432842 -0.05087555 -0.00815323
000050 e1 aa 69 3e e7 24 a3 3d 9e 57 e4 bd 72 7b 66 bd
       0.22819091 0.07966023 -0.11149524 -0.05627007
000060 05 32 d9 be 24 cd af 3d 00 50 75 bd b2 af 01 bf
       -0.42420974 0.08584049 -0.059890747 -0.50658715
000070 d1 1b 47 3e 37 b2 60 be 7e ff e2 3d 4a 1c 35 be
       0.19444205 -0.21942984 0.110838875 -0.17686573
000080 97 68 60 be 55 c1 85 3b 11 ce ce 3c 86 de 35 3d
       -0.21914898 0.004081885 0.025244744 0.044401668
000090 ac 41 98 3e 5a b3 6b 3e 1e 3c 80 3e 37 69 31 bd
       0.29737604 0.23017636 0.25045866 -0.04331323
0000a0 b9 21 89 be 09 d5 b1 bc 9b 03 b2 be 7e 19 1e 3e
       -0.2678354 -0.021708028 -0.34768376 0.15439412
0000b0 aa 35 3a 3e 90 2d 3f 3c 95 59 43 3e 9b b8 44 bc
       0.18184534 0.011668578 0.19077142 -0.012006904
0000c0 bb 7a cc 3d 5e e8 12 be 84 ef 17 be 34 01 9d 3c
       0.099843465 -0.14346454 -0.14837462 0.019165613
0000d0 7c fa 9a 3d 25 1f f6 bb f6 78 8f be 2f 1e 9b be
       0.07567307 -0.007511037 -0.28021973 -0.30296466
0000e0 f6 07 98 3e 8a ac aa bd 5f 31 01 bc f1 1d 18 be
       0.29693574 -0.083336905 -0.007885306 -0.14855172
0000f0 28 cc 4d be 97 d6 0e be a7 e4 d1 bc c0 13 53 be
       -0.2009741 -0.13949047 -0.025621725 -0.20613003
000100 95 30 40 be 0a a3 83 3e 43 97 93 3e f2 55 84 be
       -0.18768533 0.25710326 0.2882634 -0.2584682
000110 7c c1 36 be 20 87 08 3e be e6 39 3d 97 f1 90 3d
       -0.17847246 0.13332796 0.04538607 0.070773296
000120 a5 38 37 3e 77 98 53 be 60 ea da 3d bf b1 42 3e
       0.17892702 -0.2066363 0.10689235 0.19013117
000130 20 01 aa bd f9 ad ed bc 64 49 7b bc 73 01 46 bc
       -0.08300996 -0.02901362 -0.015337322 -0.012085306
000140 c8 53 23 be 12 99 88 be 70 d5 03 be 22 c5 38 3e
       -0.15949929 -0.26679283 -0.12874389 0.1804395
000150 6d 41 25 be 6d 27 47 3d 7a 4d 5e 3e 9c 9e 06 be
       -0.16138239 0.048621584 0.21709242 -0.13146442
000160 57 ca 35 be 0e b0 90 bd e0 81 04 bd ef 1c dd 3d
       -0.17752968 -0.0706483 -0.03235042 0.10796534
000170 2b af 50 bd 7a 6c 85 3d c8 92 c0 be ab 02 f4 bd
       -0.050948303 0.06514831 -0.37611985 -0.119145714
000180 f1 62 01 3e e1 b4 a5 3c 03 d8 bd 3b e1 14 44 3e
       0.126354 0.020227851 0.005793573 0.1914859
000190 17 15 a2 3e 0a f0 05 3e 44 d2 98 3e c9 aa 19 3e
       0.31656715 0.13079849 0.2984792 0.15006556
0001a0 d7 fc c3 3c 84 3a ac 3c a5 d9 2e 3e 11 ca 87 3e
       0.023924274 0.021023996 0.17075212 0.26521352
0001b0 9f 03 cb 3d aa c8 88 3e e2 3d 8f be 63 1a 65 3e
       0.099128 0.26715595 -0.279769 0.22373347
0001c0 29 85 89 be 24 2a 9f 3e d3 70 14 be 13 40 a9 3c
       -0.26859406 0.31086838 -0.14496164 0.020660436
0001d0 c6 17 2b be 3d d7 94 bd 9d d6 7f be 8e 5d 04 3c
       -0.16708288 -0.07267616 -0.24984212 0.008078946
0001e0 7f ca 4d 3e 56 44 21 be ce f8 6b be 4e 07 ec bd
       0.20096777 -0.15748724 -0.2304413 -0.11524831
0001f0 19 5b f8 be a6 df b9 3e 87 49 b2 be 45 de 34 3d
       -0.48507002 0.36303443 -0.34821722 0.044157285
000200 88 03 46 be 8f de c8 3e 2e b9 e5 3d 04 7c 58 be
       -0.19337285 0.392323 0.11216961 -0.21141058
000210 00 56 5c 3e 84 73 1a 3d 7d 35 8d 3c c0 07 3f 3e
       0.21517181 0.03770782 0.01723742 0.186553
000220 4a d7 a3 bb 36 67 99 3e 99 c4 8e 3d f2 9f 64 3e
       -0.0050000297 0.29961556 0.06971092 0.2232664
000230 56 bd 20 3e df 12 9f 3d dd 68 43 be b5 0e 75 bd
       0.15697226 0.07767271 -0.19082971 -0.05982848
000240 1b cf 79 bf 70 06 76 be 4f 23 ab bb 4c c5 9a bc
       -0.9758164 -0.24025893 -0.005222715 -0.018892907
000250 93 9d 06 bf 9a 54 df bd 3f 88 7e 3e 3d 7c b0 3e
       -0.5258419 -0.10904808 0.24856661 0.34469786
000260 35 bb 39 3e da 3a 6a 3e 0a 28 12 bd bc b1 27 3e
       0.1813782 0.22874013 -0.035682715 0.16376394
000270 31 5e 00 be 72 93 80 3e e5 c4 55 3d f1 6e 38 be
       -0.12535931 0.25112492 0.052189726 -0.18011071
000280 17 b2 2c 3e 07 43 66 be 63 e4 59 3e 61 e3 0d be
       0.16864811 -0.22486506 0.21278529 -0.1385627
000290 83 d0 f7 3c 63 7a 1d be f6 60 af be f4 14 8e 3e
       0.030250793 -0.15378718 -0.34253663 0.2775036
0002a0 2f ea a3 3e 83 f1 c9 be c2 69 8c 3e 10 d2 c5 be
       0.32014605 -0.3944207 0.27424437 -0.38636827
0002b0 60 63 3b 3e dd c5 8b be b7 69 6e 3d 52 a5 2c 3e
       0.18299627 -0.27299395 0.058206286 0.1685994
0002c0 40 0d 80 be 14 ab 31 3e 7a 78 62 3e fd f8 be be
       -0.2501011 0.17350417 0.2211627 -0.37299338
0002d0 b7 16 98 be 2b 28 9f be 5b 36 d7 3d 61 82 3a 3e
       -0.2970483 -0.31085333 0.10508414 0.18213798
0002e0 6f bd 3f 3d 57 2d 4c 3e 02 e9 fb 3c 04 d7 77 be
       0.046811517 0.19939171 0.030750755 -0.24203116
0002f0 c6 b3 ab 3d 05 38 53 3e 4e fe 0e bd 78 54 5a be
       0.083838984 0.20626839 -0.034910493 -0.21321285
000300 6a 4b 0e bc 02 0e d6 3e 0f 0a 30 3d 9f f3 b0 3c
       -0.008684972 0.41807562 0.042978343 0.021600543
000310 1a 07 59 be c7 fd 21 be 06 49 ad 3e f6 56 42 be
       -0.21194115 -0.15819465 0.33844775 -0.18978485
000320 0a ee c4 bd 73 dc 49 be 91 c5 55 bd 15 59 47 3d
       -0.09615715 -0.19713001 -0.052190367 0.04866894
000330 11 a5 bc 3d 8c a1 b4 3c d1 e0 f5 3d e9 0c 54 3e
       0.092111714 0.022049688 0.12005771 0.2070805
000340 c3 66 e4 bd 57 96 c0 be 95 f6 89 3e 7c a2 4e 3e
       -0.11152413 -0.376147 0.2694594 0.2017917
000350 f8 92 72 be 1c a8 a0 3e 81 11 37 be 79 01 5f 3d
       -0.23688877 0.31378257 -0.17877771 0.054444764
000360 d4 1d b0 bc 69 7f dc 3c 54 c2 89 be ec 2d 1f 3e
       -0.021498598 0.026916223 -0.26906073 0.15544862
000370 3d df 2f 3e 0f 73 63 bd c7 4a de 3d 51 26 12 be
       0.17175002 -0.05552965 0.108541064 -0.14272429
000380 79 1b 1e 3e 9f 8e 73 be b4 54 85 3e ca f4 15 3e
       0.15440167 -0.23784874 0.26041186 0.14644161
000390 45 79 34 3e ba d3 f8 bd e5 06 5c 3c 36 8f 52 3e
       0.17624386 -0.12149759 0.013429378 0.20562443
0003a0 81 ae 32 be 46 bb 0a be bd d6 8f be 5f 12 fe be
       -0.1744938 -0.13548002 -0.2809352 -0.4962339
0003b0 88 01 65 3e 6d 25 4c 3e 35 f0 7c be 7d 09 8b bd
       0.22363865 0.19936152 -0.24701007 -0.06788919
0003c0 e0 1f 3c be 4b be 5b 3d 15 3c 3b 3e 6d d8 df bd
       -0.18371534 0.053648274 0.18284638 -0.10929952
0003d0 4d 4b 99 bc 1d e5 1f be fd 0f 1a bd ec 05 4c be
       -0.018712664 -0.15614744 -0.037612904 -0.19924134
0003e0 96 b5 f7 3d 94 47 55 3d 0f 47 e0 bc 6d 06 bc 3e
       0.12095182 0.052070215 -0.027377633 0.36723652
0003f0 d8 c2 aa be 2a bf 93 bd 40 71 72 be 7d fc 1c bd
       -0.3335178 -0.07214196 -0.23676014 -0.03832673

fc1.bias f4 [128]
000000 dc 68 a5 bd a7 30 08 3f ab b8 64 be 91 7e 87 3d
       -0.08076641 0.5319924 -0.2233607 0.066159375
000010 f7 9d 45 bc 62 4e f3 3e 3a c4 14 3e e5 1e 38 be
       -0.012061588 0.4752074 0.1452798 -0.17980535
000020 7a cd 1a be 15 6e 74 3d 35 9d c9 3c 2c 99 bb 3c
       -0.15117446 0.059675295 0.024611095 0.022900186
000030 e9 4c 3a bd 8b 79 61 3e e3 5e 33 3f 2f 0e 59 be
       -0.045483503 0.22019021 0.7006666 -0.21196817
000040 00 e7 a3 3c 04 eb 54 be 84 d4 b1 bd 4a 33 00 3e
       0.02000761 -0.20792776 -0.08683112 0.12519565
000050 88 0e ba bd 13 f6 a7 3d 8e a0 40 3e cc 05 58 3e
       -0.09084803 0.08201232 0.18811247 0.21095961
000060 ea 30 5b b9 37 5e ec 3e 03 52 10 3e 05 22 17 3e
       -0.0002090369 0.4616563 0.14093785 0.14759071
000070 b1 b1 bc 3e 93 b0 01 be c1 c8 15 3d 37 69 8f be
       0.36854318 -0.12665014 0.036568407 -0.2800996
000080 9e 43 11 3e ef 7b bc bc 38 d3 16 3d c4 4f 77 3e
       0.1418595 -0.023008315 0.036822528 0.24151522
000090 72 98 e0 3d 06 85 8c 3e fd e6 ea 3e f5 0b 92 3e
       0.10966577 0.2744524 0.45879355 0.28524747
0000a0 47 04 98 bd cf 99 ba 3e 9f e1 b2 3d fb 46 41 be
       -0.07422691 0.36445472 0.0873444 -0.18874733
0000b0 61 64 79 be 76 16 14 3e d1 9a 41 be 36 34 40 3d
       -0.24354698 0.14461693 -0.18906714 0.046924792
0000c0 b3 59 db 3e 3e 51 84 3e 0c 6f ac 3e 9f f5 91 bc
       0.42841873 0.25843233 0.33678472 -0.017817317
0000d0 0b 88 46 be 3f 13 8f bd 75 e1 68 bd b3 0d 61 3e
       -0.19387834 -0.06986093 -0.056855638 0.21977882
0000e0 c5 06 5e 3e 9c ce 6e 3d 98 e5 27 3e 0f 98 ad bd
       0.2168227 0.058302507 0.16396177 -0.084762685
0000f0 82 42 90 3e 97 a3 c0 3e 82 e8 17 3c d7 af 4a 3e
       0.2817574 0.3762481 0.009271743 0.1979364
000100 2f 86 0c 3f 27 a3 9f 3e 7a 81 bd bd da c9 aa be
       0.5489225 0.31179163 -0.09253211 -0.33357126
000110 83 23 97 be be e2 a6 3e 2e 7d cb 3e c6 9f 36 be
       -0.2951928 0.32594866 0.39743942 -0.17834386
000120 75 7c 73 3e 24 9e 46 be 9e a3 98 3d 68 a6 c7 3c
       0.23777945 -0.19396263 0.074530825 0.02437134
000130 0d 31 18 3e 38 cf 8f bd 6c 2f 6d 3e 6a cc e6 bd
       0.14862461 -0.07021946 0.23162621 -0.11269458
000140 ee 05 5d be f3 2c 2b bd 69 bd 15 3e 68 2a 52 3d
       -0.21584293 -0.041790914 0.14623035 0.051309973
000150 6b 84 12 3e 18 b9 7c bc 68 44 26 bd be 59 87 3e
       0.14308326 -0.015424989 -0.04059258 0.26435655
000160 a5 f2 be be a0 10 a2 3c 62 b6 88 bd 82 17 0d be
       -0.37294498 0.019783318 -0.06675412 -0.13778499
000170 e7 1e 9b 3c 0a c5 1b 3e 35 6a 8f 3e 66 a8 b9 3e
       0.018935634 0.15211883 0.28010717 0.3626129
000180 43 12 77 3e ed 48 7d 3e 43 b6 a4 3e 71 ce af bd
       0.2412806 0.2473485 0.32170305 -0.085842974
000190 04 31 a0 be c0 9a e8 bd 9d 78 22 bc c2 3c 68 be
       -0.31287396 -0.11357641 -0.009916452 -0.22679427
0001a0 26 67 b6 3e 99 be 8b 39 1f bb c9 3d f7 a3 e3 3e
       0.3562557 0.00026654152 0.09850144 0.44461033
0001b0 e8 f9 c2 3d 8a 83 2c be 98 ad c9 bc 25 c6 6b 3e
       0.09520322 -0.16847053 -0.024618909 0.23024805
0001c0 46 0f 3b 3e 15 db 41 bd 43 24 0d be 8d c8 b6 bd
       0.18267545 -0.047328074 -0.13783364 -0.08924971
0001d0 81 54 b4 3e 6d 9c 9d 3e 4a 5e 8b 3d e9 9a c0 be
       0.3522072 0.30783406 0.068050936 -0.37618187
0001e0 ce e8 8a 3d a6 e0 2f be 24 da cb bd da 4a b9 bc
       0.06782685 -0.1717554 -0.099537164 -0.0226187
0001f0 bd d4 c3 3d ab 67 97 be 57 be f3 3c 3a bf 5c 3e
       0.09562061 -0.2957128 0.029753847 0.21557322

fc2.weight f4 [1, 128]
000000 54 ed 82 3d 33 41 99 be dc e7 10 bf 19 77 2c 3d
       0.06392923 -0.29932556 -0.5660379 0.042105768
000010 2d 8f 3c 3c a1 2d 66 be 6f bc b2 3e 7f b5 a9 bb
       0.011508745 -0.22478344 0.34909388 -0.0051791067
000020 a1 12 fc bc 71 4e 24 bc 2e 85 ee 3d ab 48 bf be
       -0.030770602 -0.0100284675 0.11646496 -0.3736013
000030 85 e0 c6 be 51 31 85 3d 92 77 0e 3f 58 f1 c6 3d
       -0.3884317 0.06503547 0.556512 0.097140014
000040 35 46 d5 3e 04 bb 57 3e e3 4e e2 bd a7 89 65 3e
       0.41655126 0.21067435 -0.11050203 0.22415791
000050 e9 42 5f be c6 46 1f 3d 97 84 28 3d 12 3f 75 be
       -0.21802868 0.038885854 0.041142073 -0.2394984
000060 bc d2 9d bc d5 b5 57 be 6d f6 a5 bd 86 ec 9a 3d
       -0.019265525 -0.21065457 -0.081036426 0.075646445
000070 2c f1 2e 3f 6e ed 82 bd 59 80 88 be 4a eb d8 3e
       0.6833675 -0.06392942 -0.26660421 0.4236701
000080 6b 9a f5 3d e5 d1 64 3e 0e 74 14 bf e6 15 51 3d
       0.119923435 0.22345693 -0.57989585 0.051046275
000090 30 aa 1b 3d b7 75 d6 3c 2d c9 df be cc ee 39 3e
       0.0380041 0.026179178 -0.43708172 0.181575
0000a0 17 37 1b 3c 03 00 c9 3d a7 9b 17 3d 0f 90 a9 be
       0.009473584 0.09814455 0.037013676 -0.3311772
0000b0 95 b0 2c 3c 97 8e 24 bf d5 3e f5 3c 4f 2b fa 3d
       0.010540147 -0.64280075 0.029937187 0.12215292
0000c0 ad 09 f3 be 71 6a e9 3e f2 97 a6 3d b6 17 0c bf
       -0.4746832 0.4558902 0.0813445 -0.5472368
0000d0 82 69 18 3b 82 ab c3 bd 8e 2b e7 3c 3e 8c c9 be
       0.0023256247 -0.09554197 0.02821901 -0.3936481
0000e0 8a 86 a7 3d 9c 30 b0 3d 74 5e f9 be 66 be 00 3e
       0.08179958 0.086030215 -0.48704875 0.12572631
0000f0 f9 9a 4b be 78 8d 82 3d 9b 71 f8 3c 52 19 a0 3d
       -0.19883336 0.06374639 0.030327609 0.078173295
000100 b4 42 ae be 2c 2f 8c 3c f4 78 0c 3d d0 4d 5f bb
       -0.34035265 0.017112337 0.034295037 -0.003407348
000110 d6 13 0f bc ff 39 cf 3d 6e 14 0d 3e c9 9a be 3b
       -0.008732757 0.10118484 0.13777325 0.0058167917
000120 3c f9 c3 be ea fe f0 be 1a a5 77 bd b2 70 18 bf
       -0.38276088 -0.47069484 -0.060460187 -0.5954696
000130 30 f4 09 3d b7 a2 8b be 84 52 de bd 3b ae dd 3d
       0.03368014 -0.2727258 -0.10855582 0.108242474
000140 9e 59 c5 3e f2 98 89 3d e8 65 30 bb 3f 4e a1 3e
       0.38544935 0.06718625 -0.002691621 0.3150501
000150 60 e2 bf be 43 69 8c be 57 b9 ad 3d fe 57 1d 3d
       -0.37477398 -0.27424058 0.084826164 0.038413994
000160 e6 4c f3 3e bc b8 10 bd 2d 8d 29 bd 6b 93 39 3e
       0.47519606 -0.035332426 -0.0413944 0.18122642
000170 aa 09 1b 3e 2b 1c cc bc a5 ac 51 3d 46 11 77 3e
       0.15140405 -0.024915775 0.051190037 0.24127683
000180 6b 8b e9 bd e8 91 10 3e d8 db 02 3e d0 22 5d 3e
       -0.11403545 0.14118159 0.12779176 0.21595311
000190 76 cf 65 bd da 2c 02 bd 28 b4 a7 bd e6 17 34 3e
       -0.056106053 -0.031781055 -0.08188659 0.17587242
0001a0 52 db 8e be e6 21 41 3d ba 93 3d 3d 5f 04 8e be
       -0.27901703 0.04715147 0.04628346 -0.2773771
0001b0 9f 52 11 3e e7 d7 65 be 77 d4 1d bb fc 0d b7 3c
       0.14191674 -0.22445641 -0.0024082938 0.022345535
0001c0 a6 87 4d 3d b3 9e ce 3d 8a 0d cd 3d 22 7f fc 3a
       0.050178193 0.10088863 0.10012348 0.0019263963
0001d0 35 30 7d 3d b5 e3 b9 3c 03 b1 f7 3e 24 0b 5e bb
       0.061813552 0.022691587 0.48377237 -0.0033881152
0001e0 27 81 83 3e e0 6e 3b 3c d5 c5 e6 3e 6b 46 1b bc
       0.25684473 0.011440009 0.4507281 -0.009477238
0001f0 7c 0b 79 3b 7a c6 8b bd 76 56 98 3d c8 df 23 3d
       0.003800123 -0.06824966 0.07438366 0.040008336
