results/full_experiments/baseline_ultrafeedback_2000samples_20250816_213023/optimal_model.pt (torch, 5721 bytes, 3 tensors)

fc1.weight f4 [64, 10]
0.0077116913 -0.0037712234 0.006818567 0.01067318 0.020000495 0.01658313 0.022994865 0.010189075
0.0058587426 0.0031414246 -0.0020202864 0.0016254153 -2.1314847e-05 0.011609223 0.004809729 -0.008167124
0.0016096238 0.00080900657 0.0040526274 -0.005741434 0.07547483 -0.04577516 0.029047107 0.065795265
0.020796945 -0.0044154353 -0.024447095 -0.018666437 0.012846001 0.02773178 0.059267428 -0.07040711
0.08715147 0.046449047 -0.0508365 -0.011501106 -0.052533507 -0.008869357 0.1386359 -0.010862124
-8.0996084e-05 -0.0004133698 2.5882478e-05 -9.9140416e-05 -5.883073e-05 0.00013161574 -6.0354498e-05 -6.880761e-05
-7.928796e-05 0.00018000731 0.10886727 0.07578102 0.044665173 -0.047396053 -0.065989286 0.035494253
-0.00030294625 -0.012912836 0.050087735 0.02970856 4.754514e-05 1.5049161e-05 2.564074e-05 3.7817623e-05
2.0114474e-05 -7.0603846e-06 -5.537858e-06 5.148595e-05 5.675332e-05 -4.8384463e-05 0.020548852 0.06360851
0.0048435237 0.008302816 -0.12419145 -0.04389994 0.07062849 0.089104 0.039072566 -0.034070916
0.109712996 0.09624153 0.019601455 -0.028990531 -0.06830109 0.033614285 0.03410459 -0.040168185
0.030645844 0.017777843 -0.06377415 0.012401927 -0.054659557 -0.16253208 -0.015066256 0.14072728
0.022390762 0.15428741 -0.033751395 0.021842495 0.04876455 -0.034453496 0.114381276 0.13306448
-0.084211335 -0.015011277 -0.027539095 -0.072178 0.1757295 -0.1095533 0.013874614 -0.0031738523
0.005704129 0.028259028 -0.013046594 -0.0023862217 -0.0132842325 -0.007865908 0.020728577 0.008999953
0.046383202 0.019309653 0.094725005 -0.10093363 0.048954867 0.051669877 -0.003568203 -0.024884624
-0.058378432 0.03278594 0.07639079 0.009952509 0.064084314 0.020829335 -0.055381313 0.044730578
-0.028364634 -0.06503402 0.09956605 0.006117868 -0.07314702 -0.019595211 -0.030275123 0.11653443
0.13699652 0.02786359 0.02611966 -0.026901085 -0.047623727 0.059779823 0.1617851 -0.10292811
0.08714946 0.0741387 -0.23676622 -0.008522951 0.010546941 0.10903906 0.17909935 -0.15434848
0.066636555 0.014326124 0.104414895 -0.16465645 0.055029616 0.07455811 0.03005388 -0.01568848
-0.11645747 0.0644186 0.03278778 0.008080776 0.01765263 0.0018741065 0.019979374 0.020228785
0.019859435 -0.0006549944 0.01026227 -0.003644921 0.02680933 0.003432029 0.014211886 -0.007129681
0.017958378 0.032617208 0.024551982 0.004540708 0.018137507 -0.00069730164 -0.09283245 0.018422136
-0.022380766 -0.097436726 0.18045919 0.088971965 0.02904285 -0.082097575 -0.1532123 0.13273294
0.018281931 0.0015668279 0.027464349 0.018506708 0.046284836 0.030941742 0.055265643 0.002632213
0.0166264 -0.016265642 0.032056153 0.004916367 0.029019527 -0.0011262207 0.027497657 0.037724543
0.023621913 0.003233189 0.019036897 -0.007484466 0.06964609 -0.009384044 0.028459776 0.055573717
-0.05704449 0.010050761 0.017261688 0.020865908 0.06418353 0.010471003 0.08582335 0.120290734
-0.0030509478 0.0057177274 -0.047998134 0.003212633 0.016638456 -0.030577723 0.05086279 -0.008693205
0.07301182 0.00093532226 0.011599304 -0.008847326 0.030590532 0.02828921 0.047802415 0.016654762
0.015919883 -0.012907476 -0.016196687 0.007813134 0.008040805 0.012586427 0.012755013 0.033889513
00000000: 5bb2 fc3b a126 77bb 496e df3b 90de 2e3c
00000010: 14d8 a33c 58d9 873c ba5f bc3c 14f0 263c
00000020: b2fa bf3b 5ce0 4d3b c866 04bb e30b d53a
00000030: 49cd b2b7 9c34 3e3c ee9a 9d3b 67cf 05bc
00000040: 03fa d23a 8313 543a e7cb 843b a422 bcbb
00000050: 8c92 9a3d bc7e 3bbd 33f4 ed3c abbf 863d
00000060: 5b5e aa3c 5baf 90bb 4645 c8bc 5bea 98bc
00000070: 0978 523c c22d e33c 67c2 723d 9a31 90bd
00000080: 787c b23d 5b41 3e3d ef39 50bd 236f 3cbc
00000090: 602d 57bd c850 11bc 92f6 0d3e 0df7 31bc
000000a0: 71dc a9b8 8eb9 d8b9 331e d937 9be9 cfb8
000000b0: 04c1 76b8 5502 0a39 2625 7db8 ce4c 90b8
000000c0: 6647 a6b8 58c0 3c39 cef5 de3d 1433 9b3d
000000d0: d4f2 363d 5d22 42bd 6425 87bd 6c62 113d
000000e0: c2d4 9eb9 5c90 53bc cc28 4d3d 5e5f f33c
000000f0: 356b 4738 a87b 7c37 1217 d737 5d9e 1e38
00000100: 81bb a837 3ee8 ecb6 d7d1 b9b6 9ef2 5738
00000110: 6a0a 6e38 6cf0 4ab8 1156 a83c 2e45 823d
00000120: 6cb6 9e3b 8908 083c 1658 febd 6cd0 33bd
00000130: aba5 903d 287c b63d 8e0a 203d f28d 0bbd
00000140: 35b1 e03d 471a c53d 3b93 a03c 8d7d edbc
00000150: 71e1 8bbd 22af 093d 41b1 0b3d 6587 24bd
00000160: fe0c fb3c d7a2 913c 069c 82bd 7431 4b3c
00000170: b3e2 5fbd cf6e 26be 75d8 76bc d01a 103e
00000180: d56c b73c 85fd 1d3e e73e 0abd 08ef b23c
00000190: 56bd 473d 1c1f 0dbd bb40 ea3d 0e42 083e
000001a0: fe76 acbd dcf1 75bc ab99 e1bc 0fd2 93bd
000001b0: 6ff2 333e 7b5d e0bd 5952 633c 6800 50bb
000001c0: b4e9 ba3b 7a7f e73c 62c1 55bc 2862 1cbb
000001d0: 1ca6 59bc 02e0 00bc face a93c 8a74 133c
000001e0: 50fc 3d3d 472f 9e3c 2fff c13d 4ab6 cebd
000001f0: e684 483d cba3 533d 83d8 69bb d7da cbbc
00000200: 391e 6fbd 8d4a 063d c672 9c3d d90f 233c
00000210: a33e 833d 48a2 aa3c 84d7 62bd 6937 373d
00000220: f35c e8bc 8e30 85bd 49e9 cb3d 6578 c83b
00000230: 1bce 95bd 2386 a0bc 8903 f8bc 9aa9 ee3d
00000240: d148 0c3e 2f42 e43c e6f8 d53c aa5f dcbc
00000250: 1911 43bd b0db 743d feaa 253e f9cb d2bd
00000260: 6b7b b23d 08d6 973d d872 72be d9a3 0bbc
00000270: 14cd 2c3c df4f df3d d265 373e 870d 1ebe
00000280: bf78 883d 1fb8 6a3c 7ad7 d53d b39b 28be
00000290: bc66 613d ecb1 983d 8e33 f63c 2185 80bc
000002a0: 4181 eebd e6ed 833d 7b4c 063d 3b65 043c
000002b0: 409c 903c 94a4 f53a c9ab a33c d6b6 a53c
000002c0: 41b0 a23c eeb3 2bba 1523 283c a0df 6ebb
000002d0: 3d9f db3c e4eb 603b f8d8 683c 19a0 e9bb
000002e0: 731d 933c 9f99 053d 3d21 c93c 38ca 943b
000002f0: 1c95 943c 1fcb 36ba f11e bebd 05ea 963c
00000300: de57 b7bc e88c c7bd 4bca 383e ef36 b63d
00000310: 45eb ed3c c622 a8bd afe3 1cbe 25eb 073e
00000320: fdc3 953c 055e cd3a eafc e03c 619b 973c
00000330: 2b95 3d3d 8979 fd3c 3a5e 623d 3581 2c3b
00000340: 1734 883c 863f 85bc 504d 033d 7a19 a13b
00000350: 5cba ed3c b29d 93ba c442 e13c 0d85 1a3d
00000360: be82 c13c e9e3 533b 44f3 9b3c 4040 f5bb
00000370: 9ca2 8e3d 89bf 19bc 7a24 e93c 44a1 633d
00000380: 7ca7 69bd f2ab 243c 6268 8d3c fbee aa3c
00000390: a872 833d 928e 2b3c 27c4 af3d fd5a f63d
000003a0: 69f2 47bb c65b bb3b b199 44bd 0a8b 523b
000003b0: 5f4d 883c 227e fabc 8055 503d f26d 0ebc
000003c0: 3987 953d 6a30 753a 020b 3e3c 60f4 10bc
000003d0: ff98 fa3c c6be e73c 77cc 433d 916f 883c
000003e0: 6a6a 823c e179 53bc eaae 84bc a902 003c
000003f0: 95bd 033c 4d37 4e3c 67fa 503c bbcf 0a3d

fc1.bias f4 [64]
0.24657777 0.00019648919 0.22573425 0.18316278 -0.00013065776 0.33239332 -4.1295738e-05 0.13462608
0.37376192 0.19865292 0.2407769 0.073746376 0.27690497 0.2893864 0.33895186 0.059578173
0.32719994 0.28235605 0.28965294 0.13263296 0.40991825 0.34235182 0.3374936 0.34954408
0.40584567 0.3478578 0.07893246 0.40625352 0.17597616 0.338011 0.32023606 0.35354778
0.3630586 0.34689292 -0.22703587 0.32978806 0.38184425 0.2847801 0.37151322 -9.4718375e-15
0.31962624 0.06349711 -0.00023866177 0.10862102 0.27069938 0.38140804 0.16027676 0.39569283
0.043581817 0.405317 0.26328093 -0.0497903 0.1976596 0.4073572 0.34803852 0.039215606
0.2218457 0.30496782 0.028695988 -4.783557e-14 0.3876643 0.23787719 0.2902182 0.29183683
00000000: e27e 7c3e aa08 4e39 e126 673e 068f 3b3e
00000010: 2d01 09b9 752f aa3e f634 2db8 6bdb 093e
00000020: b95d bf3e ac6b 4b3e 388e 763e 5708 973d
00000030: 7dc6 8d3e 742a 943e 198b ad3e 3e08 743d
00000040: c086 a73e f990 903e 644d 943e efd0 073e
00000050: cee0 d13e bd48 af3e f6cb ac3e 71f7 b23e
00000060: 01cb cf3e 6b1a b23e 57a7 a13d 7600 d03e
00000070: 1833 343e c70f ad3e fbf5 a33e 3704 b53e
00000080: d1e2 b93e f39b b13e 177c 68be fbd9 a83e
00000090: 1781 c33e b3ce 913e fb36 be3e 24a1 2aa8
000000a0: 0da6 a33e c60a 823d 4841 7ab9 b374 de3d
000000b0: 1c99 8a3e ea47 c33e 971f 243e 4098 ca3e
000000c0: d982 323d b685 cf3e c2cc 863e eaf0 4bbd
000000d0: 4767 4a3e 1f91 d03e 1b32 b23e 8ba0 203d
000000e0: 852b 633e be24 9c3e d913 eb3c a86e 57a9
000000f0: ef7b c63e 1496 733e 7b97 943e a36b 953e

fc2.weight f4 [1, 64]
0.23420165 0.012968759 0.24039824 0.26274195 0.00034311728 0.3490182 6.3396845e-05 0.2252691
0.38543734 0.32798803 0.36513883 0.07437484 0.31034225 0.3155928 0.37725285 0.40790716
0.3943624 0.27031726 0.27700293 0.33861804 0.38999376 0.32174516 0.3391881 0.37069058
0.38778502 0.33729085 0.2603574 0.38374567 0.31640428 0.3266703 0.30604386 0.35252178
0.35023054 0.3389142 -0.36387998 0.316557 0.35780767 0.2739717 0.3647084 3.8600017e-16
0.33543515 0.22187462 0.0027041752 0.2545339 0.36398086 0.3711957 0.24597809 0.38351926
0.24177423 0.3818608 0.24948362 -0.08786139 0.31754503 0.3828736 0.34446737 0.077689156
0.30629492 0.35444012 0.105925605 4.390513e-14 0.3737367 0.2316386 0.29198104 0.27791765
00000000: 8fd2 6f3e eb7a 543c f52a 763e 1d86 863e
00000010: 6ce4 b339 83b2 b23e ecf3 8438 f1ac 663e
00000020: 0b58 c53e 0cee a73e 7af3 ba3e d651 983d
00000030: 2ee5 9e3e 6195 a13e 4927 c13e 35d9 d03e
00000040: dee9 c93e 0667 8a3e 54d3 8d3e 585f ad3e
00000050: 43ad c73e c8bb a43e 10aa ad3e 28cb bd3e
00000060: c28b c63e 63b1 ac3e 914d 853e 507a c43e
00000070: beff a13e 5441 a73e c8b1 9c3e bc7d b43e
00000080: 6b51 b33e 2986 ad3e 7a4e babe c213 a23e
00000090: 9132 b73e 0546 8c3e 0fbb ba3e 9283 de25
000000a0: 28be ab3e 1a33 633e 8838 313b 4452 823e
000000b0: b35b ba3e 5d0d be3e aee1 7b3e a35c c43e
000000c0: aa93 773e 4283 c33e a278 7f3e acf0 b3bd
000000d0: 4395 a23e 0208 c43e 075e b03e 7e1b 9f3d
000000e0: b0d2 9c3e 2d79 b53e 86ef d83d 2bbb 4529
000000f0: 6b5a bf3e ab32 6d3e 8a7e 953e 394b 8e3e
