models/agg_model_gam.pt (torch, 9606 bytes, 20 tensors)

f.0.net.0.weight f4 [16, 1]
000000 00 00 00 00 00 00 00 00 00 00 00 00 c7 e0 98 3e
       0.0 0.0 0.0 0.29858992
000010 9f 05 80 3e 00 00 00 00 f8 8c 7f 3e 00 00 00 00
       0.2500429 0.0 0.24956119 0.0
000020 00 00 00 00 39 43 9d 3e 00 00 00 00 00 00 00 00
       0.0 0.3071535 0.0 0.0
000030 00 00 00 00 dd 90 96 3e 00 00 00 00 00 00 00 00
       0.0 0.29407397 0.0 0.0

f.0.net.2.weight f4 [1, 16]
000000 00 00 00 00 00 00 00 00 00 00 00 00 60 31 5c 3e
       0.0 0.0 0.0 0.2150321
000010 98 e4 62 3e 00 00 00 00 d2 b9 63 3e 00 00 00 00
       0.22157514 0.0 0.22238854 0.0
000020 00 00 00 00 d6 a3 63 3e 00 00 00 00 00 00 00 00
       0.0 0.22230467 0.0 0.0
000030 00 00 00 00 20 01 8e 3e 00 00 00 00 00 00 00 00
       0.0 0.27735233 0.0 0.0

f.1.net.0.weight f4 [16, 1]
000000 00 00 00 00 39 e1 5e 3e 7f 5d 6d 3e 00 00 00 00
       0.0 0.21765603 0.23180197 0.0
000010 00 00 00 00 fd b6 5e 3e 01 9c 79 3e 00 00 00 00
       0.0 0.21749492 0.24375917 0.0
000020 00 00 00 00 c1 d8 59 3e d7 3e 50 3e 00 00 00 00
       0.0 0.21274091 0.20336471 0.0
000030 00 00 00 00 c2 dd 69 3e 00 00 00 00 00 00 00 00
       0.0 0.228385 0.0 0.0

f.1.net.2.weight f4 [1, 16]
000000 00 00 00 00 53 9d 21 3e 21 48 17 3e 7d 9b ae 3c
       0.0 0.1578267 0.14773609 0.021314377
000010 16 02 15 3c 33 89 1d 3e d3 4d 10 3e 00 00 00 00
       0.009094736 0.15384369 0.14092188 0.0
000020 00 00 00 00 d6 3c 1a 3e 5f 87 26 3e 33 f5 e4 3c
       0.0 0.1506227 0.16262577 0.027948951
000030 94 f8 1a 3d 1d 21 0d 3e 00 00 00 00 00 00 00 00
       0.03783472 0.13782163 0.0 0.0

f.2.net.0.weight f4 [16, 1]
000000 00 00 00 00 a5 10 45 3e 6f 66 40 3e 00 00 00 00
       0.0 0.1924463 0.18789075 0.0
000010 4c 15 4b 3e 00 00 00 00 15 15 46 3e 00 00 00 00
       0.19832343 0.0 0.1934398 0.0
000020 00 00 00 00 13 fc 7a 3e 79 09 78 3e 0c 1e 3d 3e
       0.0 0.24510221 0.24222364 0.18468493
000030 00 00 00 00 a7 f0 5f 3e 95 c2 46 3e 40 af 80 3e
       0.0 0.21869145 0.19410165 0.25133705

f.2.net.2.weight f4 [1, 16]
000000 00 00 00 00 e7 43 3b 3e 0f fb 41 3e 00 00 00 00
       0.0 0.18287621 0.18943428 0.0
000010 39 11 36 3e 00 00 00 00 57 55 3b 3e 00 00 00 00
       0.17780007 0.0 0.18294273 0.0
000020 00 00 00 00 3a 7f 18 3e 8f 94 19 3e ab fa 43 3e
       0.0 0.14892283 0.14998077 0.19138591
000030 00 00 00 00 6b 55 25 3e 3a b0 41 3e 0a 44 2f 3e
       0.0 0.16145866 0.18914881 0.17115799

f.3.net.0.weight f4 [16, 1]
000000 00 00 00 00 81 eb a3 3e 07 64 8d 3e 00 00 00 00
       0.0 0.32015613 0.27615377 0.0
000010 00 00 00 00 14 e6 8b 3e a7 b8 92 3e 2f 6b 92 3e
       0.0 0.27323973 0.28656504 0.285974
000020 00 00 00 00 00 00 00 00 00 00 00 00 00 00 00 00
       0.0 0.0 0.0 0.0
000030 f3 9a 74 3e 9f 2b 75 3e bf ba 7c 3e 9d 94 8b 3e
       0.23887233 0.23942421 0.24680613 0.2726182

f.3.net.2.weight f4 [1, 16]
000000 00 00 00 00 e2 7d 55 3e 35 d6 87 3e 00 00 00 00
       0.0 0.20848802 0.26530614 0.0
000010 00 00 00 00 4a 6d 8a 3e 71 f5 7e 3e 1f fc 80 3e
       0.0 0.27036506 0.24898316 0.25192353
000020 00 00 00 00 00 00 00 00 00 00 00 00 00 00 00 00
       0.0 0.0 0.0 0.0
000030 62 00 96 3e 10 3c 94 3e f1 94 8e 3e 95 b5 81 3e
       0.29297167 0.28952074 0.27848008 0.2533385

f.4.net.0.weight f4 [16, 1]
000000 5d bb 85 3e 00 00 00 00 00 00 00 00 00 00 00 00
       0.2611951 0.0 0.0 0.0
000010 00 00 00 00 00 00 00 00 00 00 00 00 00 00 00 00
       0.0 0.0 0.0 0.0
000020 26 ba a2 3e be ba 72 3e 03 e5 89 3e c2 74 84 3e
       0.31782645 0.23704049 0.26932535 0.2587033
000030 00 00 00 00 46 63 6b 3e 56 ec 87 3e 16 7b 84 3e
       0.0 0.22987089 0.26547498 0.25875157

f.4.net.2.weight f4 [1, 16]
000000 a5 19 65 3e 00 00 00 00 00 00 00 00 00 00 00 00
       0.22373064 0.0 0.0 0.0
000010 00 00 00 00 00 00 00 00 00 00 00 00 00 00 00 00
       0.0 0.0 0.0 0.0
000020 b9 3f 50 3e 76 d9 62 3e 0e 6d 53 3e 62 52 57 3e
       0.20336808 0.22153267 0.2064707 0.2102752
000030 00 00 00 00 d0 06 68 3e 7e c6 83 3e 4d 4d 57 3e
       0.0 0.22658849 0.25737375 0.21025582

f.5.net.0.weight f4 [16, 1]
000000 00 00 00 00 64 b0 4b 3e 00 00 00 00 00 00 00 00
       0.0 0.19891506 0.0 0.0
000010 00 00 00 00 00 00 00 00 00 00 00 00 f9 c1 84 3e
       0.0 0.0 0.0 0.2592924
000020 80 2c a7 3e de c1 a1 3e 00 00 00 00 00 00 00 00
       0.32651138 0.3159322 0.0 0.0
000030 00 00 00 00 00 00 00 00 00 00 00 00 35 d2 a6 3e
       0.0 0.0 0.0 0.3258225

f.5.net.2.weight f4 [1, 16]
000000 00 00 00 00 d9 ed 35 3e 42 45 f4 3d 00 00 00 00
       0.0 0.17766513 0.119272724 0.0
000010 00 00 00 00 00 00 00 00 00 00 00 00 89 70 30 3e
       0.0 0.0 0.0 0.17230429
000020 eb a3 3f 3e 25 f0 40 3e 6f 5f 00 3c 00 00 00 00
       0.18714873 0.18841608 0.007835253 0.0
000030 00 00 00 00 00 00 00 00 00 00 00 00 4b b9 3f 3e
       0.0 0.0 0.0 0.18723027

f.6.net.0.weight f4 [16, 1]
000000 89 77 03 3f 00 00 00 00 00 00 00 00 a8 b8 d5 3e
       0.5135427 0.0 0.0 0.41742444
000010 00 00 00 00 00 00 00 00 00 00 00 00 00 00 00 00
       0.0 0.0 0.0 0.0
000020 00 00 00 00 00 00 00 00 0f 7b fe 3e 99 2e fb 3e
       0.0 0.0 0.4970326 0.4905899
000030 bf 08 07 3f 00 00 00 00 00 00 00 00 56 88 03 3f
       0.5274772 0.0 0.0 0.5137991

f.6.net.2.weight f4 [1, 16]
000000 ae c0 e0 3e 00 00 00 00 00 00 00 00 1f cc fb 3e
       0.43897003 0.0 0.0 0.4917917
000010 00 00 00 00 00 00 00 00 00 00 00 00 00 00 00 00
       0.0 0.0 0.0 0.0
000020 00 00 00 00 00 00 00 00 45 c0 ec 3e a6 bb f5 3e
       0.0 0.0 0.4624044 0.47994727
000030 91 67 d6 3e 00 00 00 00 00 00 00 00 18 8b e0 3e
       0.4187589 0.0 0.0 0.4385612

f.7.net.0.weight f4 [16, 1]
000000 63 3c 39 3f c1 07 48 3f 00 00 00 00 00 00 00 00
       0.7235777 0.7813683 0.0 0.0
000010 00 00 00 00 00 00 00 00 00 00 00 00 00 00 00 00
       0.0 0.0 0.0 0.0
000020 00 00 00 00 00 00 00 00 00 00 00 00 00 00 00 00
       0.0 0.0 0.0 0.0
000030 00 00 00 00 00 00 00 00 16 4d 42 3f 00 00 00 00
       0.0 0.0 0.75898874 0.0

f.7.net.2.weight f4 [1, 16]
000000 e8 07 2f 3f 4e a8 2e 3f 00 00 00 00 00 00 00 00
       0.6837144 0.6822556 0.0 0.0
000010 00 00 00 00 00 00 00 00 00 00 00 00 00 00 00 00
       0.0 0.0 0.0 0.0
000020 00 00 00 00 00 00 00 00 00 00 00 00 00 00 00 00
       0.0 0.0 0.0 0.0
000030 00 00 00 00 00 00 00 00 17 e9 36 3f 00 00 00 00
       0.0 0.0 0.71449417 0.0

f.8.net.0.weight f4 [16, 1]
000000 00 00 00 00 00 00 00 00 00 00 00 00 df 31 75 3e
       0.0 0.0 0.0 0.23944806
000010 00 00 00 00 00 00 00 00 00 00 00 00 a8 fe 8c 3e
       0.0 0.0 0.0 0.27538037
000020 f5 f7 8e 3e 00 00 00 00 a7 2f 66 3e 11 22 91 3e
       0.2792355 0.0 0.22479115 0.28346303
000030 00 00 00 00 00 00 00 00 00 00 00 00 00 00 00 00
       0.0 0.0 0.0 0.0

f.8.net.2.weight f4 [1, 16]
000000 00 00 00 00 00 00 00 00 00 00 00 00 da ea 43 3e
       0.0 0.0 0.0 0.19132558
000010 00 00 00 00 00 00 00 00 00 00 00 00 2c 1c 2d 3e
       0.0 0.0 0.0 0.16905278
000020 0e 9a 3f 3e 00 00 00 00 fe 14 69 3e c6 53 2c 3e
       0.18711111 0.0 0.22761914 0.16828832
000030 00 00 00 00 00 00 00 00 00 00 00 00 00 00 00 00
       0.0 0.0 0.0 0.0

f.9.net.0.weight f4 [16, 1]
000000 00 00 00 00 f7 9d 84 3e 00 00 00 00 b7 7b 4b 3e
       0.0 0.25901768 0.0 0.19871412
000010 00 00 00 00 00 00 00 00 11 90 56 3e a3 b0 37 3e
       0.0 0.0 0.20953394 0.17938475
000020 00 00 00 00 78 c1 78 3e aa be 5f 3e 00 00 00 00
       0.0 0.24292552 0.21850076 0.0
000030 f3 a5 41 3e 6c d0 1c 3e 2e 9d 48 3e 80 a3 52 3e
       0.18910961 0.15313882 0.1959121 0.20570183

f.9.net.2.weight f4 [1, 16]
000000 00 00 00 00 67 b2 1c 3e 00 00 00 00 af 11 1b 3e
       0.0 0.1530243 0.0 0.15143465
000010 00 00 00 00 00 00 00 00 88 75 27 3e 64 9b 29 3e
       0.0 0.0 0.16353428 0.16563183
000020 00 00 00 00 bf d4 0a 3e 98 d2 2f 3e 00 00 00 00
       0.0 0.13557719 0.17170179 0.0
000030 00 16 22 3e 12 3f 63 3e 4d 6e 21 3e 06 60 26 3e
       0.15828705 0.22192028 0.15764733 0.16247568
