models/agg_model_mlp.pt (torch, 3353 bytes, 3 tensors)

net.0.weight f4 [16, 10]
0	0x3ee6cf2e	0.4507994
1	0x3dfe3381	0.12412167
2	0xbcf2e2b7	-0.029649122
3	0x3da22fb2	0.079192534
4	0x3c854b2f	0.016271202
5	0x3e43727b	0.1908664
6	0x3e5f0a4c	0.21781272
7	0xbecab308	-0.39589715
8	0xbd3b2f03	-0.04569913
9	0x3ed1765e	0.4091062
10	0x3e5fed4d	0.21867867
11	0xbdc28c80	-0.094994545
12	0xbe6dd62a	-0.23226228
13	0xbecc298e	-0.39875454
14	0xbf06724d	-0.5251816
15	0xbe15915e	-0.14606234
16	0x3d8be541	0.06830836
17	0x3e1c1fb5	0.1524647
18	0x3e2f2409	0.1710359
19	0xbee01008	-0.4376223
20	0xbe3e30fc	-0.18573374
21	0x3da1416d	0.07873807
22	0x3f133d6f	0.57515615
23	0x3e8c615c	0.2741803
24	0xbdf1f6b1	-0.11814631
25	0x3e86b2e5	0.2630836
26	0x3cb69260	0.022286594
27	0xbe343371	-0.17597748
28	0x3f073d81	0.5282822
29	0xbe2a3f91	-0.16625811
30	0xbd9135bb	-0.070903264
31	0xbecc6631	-0.39921716
32	0x3ec92b97	0.3929107
33	0x3f0129bc	0.50454307
34	0x3e38c7a6	0.1804491
35	0xbea826ab	-0.32842
36	0xbeae47fd	-0.34039298
37	0xbe9a427a	-0.30128843
38	0x3ef2af8a	0.4739955
39	0x3e8563fd	0.26052848
40	0x3edcea14	0.43147337
41	0x3ddfdd58	0.1093089
42	0x3e15b4fc	0.14619821
43	0xbd96fb7b	-0.07372185
44	0xbf032100	-0.5122223
45	0xbec94161	-0.39307693
46	0xbf0ac8c7	-0.5421261
47	0x3c998ac5	0.018742928
48	0xbe625741	-0.22103597
49	0xbde7089b	-0.11280938
50	0xbe6500e6	-0.22363624
51	0xbe112cab	-0.14177196
52	0xbe7a87ab	-0.24465816
53	0xbea0d937	-0.31415722
54	0xbc884e3d	-0.01663887
55	0xbe227908	-0.15866482
56	0x3e7f6c46	0.24943647
57	0xbe9830ac	-0.29724634
58	0xbea24488	-0.3169291
59	0xbdd277a4	-0.10276726
60	0xbe6361d1	-0.22205283
61	0xbd4cff86	-0.050048374
62	0xbeb2a958	-0.34894824
63	0x3eb777fd	0.3583373
64	0xbe8ff9ca	-0.2812026
65	0x3e932d68	0.2874558
66	0x3ea02d22	0.31284434
67	0x3ed115af	0.40836856
68	0xbe46fa8b	-0.19431512
69	0x3eaa76a9	0.33293656
70	0xbe42bbf7	-0.19017015
71	0x3df4673e	0.119337544
72	0x3edfd54a	0.43717414
73	0xbd4b10fe	-0.049576752
74	0xbdcc22cf	-0.09967577
75	0xbdba3b45	-0.09093336
76	0xbee1ca2b	-0.44099554
77	0x3e1d3903	0.1535378
78	0xbee8196b	-0.45331892
79	0x3ea56dcf	0.3231034
80	0x3ebd8477	0.37015125
81	0x3e911d7c	0.28342807
82	0xbd0a2b42	-0.03373266
83	0xbed341ff	-0.4126129
84	0xbd64e608	-0.055883437
85	0x3e5c481e	0.21511886
86	0xbf0d545b	-0.5520684
87	0xbe8a3b11	-0.2699819
88	0xbe6eab41	-0.23307516
89	0xbd5bc056	-0.053650223
90	0xbe4dd9f1	-0.2010267
91	0xbe83cfab	-0.25744376
92	0xbd4aeacc	-0.049540326
93	0xbef913ec	-0.48648012
94	0x3e7501a5	0.23926409
95	0x3eb4c8e7	0.35309526
96	0xbe01823f	-0.12647341
97	0xbe51f98f	-0.20505355
98	0xbe02c50c	-0.1277048
99	0xbedf676c	-0.43633592
100	0xbf028fd0	-0.5100069
101	0x3ea13ab0	0.31490088
102	0xbedbf39f	-0.42959306
103	0xbe8d1742	-0.27556807
104	0x3e5885d1	0.21144797
105	0xbe23f6fd	-0.16012187
106	0xbdbe59c8	-0.09294468
107	0x3e5b926f	0.21442579
108	0xbe3bb7db	-0.18331854
109	0xbe214ba2	-0.15751508
110	0xbe36d430	-0.1785438
111	0xbe721c66	-0.23643646
112	0x3f00ae33	0.50265807
113	0xbd3c385f	-0.045952197
114	0x3def3a8e	0.1168109
115	0xbe111b8d	-0.14170666
116	0x3e420b2d	0.18949576
117	0x3f1154ae	0.56769836
118	0x3ea75de6	0.32688826
119	0xbed5917e	-0.41712564
120	0x3e6ed8d6	0.23324904
121	0x3f230385	0.63677245
122	0x3e802e8c	0.25035512
123	0x3ecae560	0.39628124
124	0x3efd731a	0.49501878
125	0xbd1f439c	-0.038882837
126	0x3e603639	0.21895684
127	0xbe897af8	-0.2685163
128	0x3d4980ef	0.049195226
129	0x3eb47f14	0.35253203
130	0x3e493bac	0.1965167
131	0xbe65a488	-0.22426045
132	0xbf001bad	-0.5004223
133	0xbe51d3cd	-0.20490952
134	0xbeb35b15	-0.35030428
135	0xbec4129d	-0.3829545
136	0xbce3b44e	-0.027795937
137	0x3f01bdd5	0.50680286
138	0x3e0b3842	0.1359568
139	0xbead2fe8	-0.33825612
140	0xbeb1ae2c	-0.34703195
141	0x3e121236	0.1426476
142	0xbe66a147	-0.2252246
143	0xbdb16676	-0.08662121
144	0x3d7a7899	0.061150167
145	0xbe69610c	-0.22790927
146	0xbdc6e6e6	-0.09712009
147	0xbe4a7bf8	-0.19773853
148	0xbd97dfc9	-0.074157305
149	0xbe88959c	-0.26676643
150	0xbecad32a	-0.3961423
151	0xbec7ddb9	-0.39036348
152	0xbe908f26	-0.28234214
153	0x3ecd3e06	0.40086383
154	0xbe56b857	-0.20968758
155	0xbe6e19df	-0.23252057
156	0x3d662530	0.05618781
157	0x3db63169	0.08896143
158	0x3e3d0ce3	0.18461947
159	0x3ec1a0c0	0.37817955

net.0.bias f4 [16]
0	0x3d8f21c6	0.06988864
1	0xbd97ff00	-0.07421684
2	0x3c7faacb	0.015604685
3	0x3d1dca59	0.038523052
4	0xbdc14288	-0.09436518
5	0xbdf9d8b0	-0.12199533
6	0x3d6950d7	0.05696186
7	0xbc9c300a	-0.019065876
8	0xbd251f20	-0.040312886
9	0xbda3bbc0	-0.07994795
10	0x3dad5d25	0.084650315
11	0x3d8f83fb	0.07007595
12	0x3dac4edc	0.08413479
13	0x3d116e0b	0.035505336
14	0xbde595fd	-0.112102486
15	0xbd90f487	-0.0707789

net.2.weight f4 [1, 16]
0	0x3eba78c1	0.36420253
1	0xbf15638f	-0.5835504
2	0x3e60cd1a	0.2195324
3	0x3ee6b35e	0.4505872
4	0xbe08f80a	-0.1337587
5	0xbea68d5a	-0.32529718
6	0x3f0d6e59	0.552465
7	0xbe21e0fb	-0.1580848
8	0xbeb092d5	-0.34487024
9	0xbefa0e84	-0.488392
10	0x3dee48be	0.11634968
11	0x3ec8db79	0.39229944
12	0x3e565839	0.20932092
13	0x3e19e3e5	0.15028341
14	0xbec62cac	-0.38705957
15	0xbed98c7e	-0.4249
